models/gru_model.pth (torch, 173603 bytes, 10 tensors)

gru.weight_ih_l0 f4 [192, 27]
000000 05 9a 42 3e fc 50 ec 3d 93 5a a5 3e 60 9a 87 bd
       0.19004066 0.11538884 0.32295665 -0.066212416
000010 53 01 01 bd b2 29 dc 3c a3 c6 fe 3c fb 59 1f 3e
       -0.031495403 0.02687535 0.031100577 0.15561669
000020 2d f8 a9 3d 43 2f b2 bd f7 48 a9 bd aa b8 7e 3d
       0.08299289 -0.08700421 -0.0826587 0.062187828
000030 ef 1a 0c 3e 26 54 ec bd 35 24 28 be 79 cc 29 3d
       0.1368215 -0.115394875 -0.16420062 0.041454766
000040 0c 0b 10 be 5c 01 2e be 40 9c d0 3d 57 b6 03 bc
       -0.14066714 -0.16992706 0.10186052 -0.008039079
000050 76 5f f3 3c c8 83 d9 bd 8f 71 2b bc 8d 2c 9a bd
       0.029708605 -0.106208384 -0.010464086 -0.07528029
000060 45 e8 c9 bd ea c4 40 bd 83 5b 4b bd 85 65 63 3d
       -0.09858755 -0.047062792 -0.04964782 0.05551674
000070 7a 21 b7 3d 72 3f 00 bd 02 b4 17 3e 52 1e a6 be
       0.08941932 -0.031310506 0.14814761 -0.32445008
000080 dc fb 2b be 99 3e 72 be 74 ab 22 be fc 3b 7c be
       -0.16795295 -0.23656692 -0.15885717 -0.24632257
000090 6c e2 4e be 06 a3 47 3e 7c 10 f2 bd 4a 4a c6 3d
       -0.2020356 0.19495782 -0.118195504 0.09682138
0000a0 7b 72 82 bd 9c 53 4e 3e e0 84 1c be d8 5b 48 3e
       -0.06369492 0.20149082 -0.15285063 0.19566286
0000b0 f6 5a 4e bd d8 cc 61 3e b8 65 58 3e 03 b8 9f 3d
       -0.050379716 0.22050798 0.21132553 0.07798769
0000c0 e1 e8 e9 bd fa fe 6e 3e a2 f4 b4 3d 12 89 c3 3d
       -0.11421371 0.23339453 0.088357225 0.095476285
0000d0 9b b5 50 be a9 4a 6e 3c 32 61 8e be c7 69 5a be
       -0.20381777 0.014544168 -0.2780853 -0.21329413
0000e0 6c b0 09 bc 34 5d b2 bc da 77 bf 3d e9 c9 74 bc
       -0.008403879 -0.021772958 0.09349032 -0.014940717
0000f0 82 d4 14 bd 79 e5 a7 be 0c c5 64 3e a5 37 78 3e
       -0.036335476 -0.3279226 0.22340792 0.24239977
000100 bd 2e f7 3d a0 95 c9 bd 4b f8 65 be 1d ad ac b9
       0.120694615 -0.09842992 -0.22457998 -0.00032935376
000110 93 b2 0e be f6 31 4d 3c 72 9d 25 be e0 fa 81 3e
       -0.13935308 0.012524119 -0.16173342 0.25386715
000120 9b 7a 40 be 70 45 2e 3d f1 b8 39 3d 2a 34 3b be
       -0.1879677 0.04254669 0.04534239 -0.18281618
000130 46 ab da 3d 7e 54 e9 bc 9d 08 13 3e 53 eb 80 be
       0.10677199 -0.028482672 0.14358754 -0.25179538
000140 b7 59 1c 3d 30 79 0c be 0d be 96 3d 28 1d ad bc
       0.038171496 -0.13718104 0.07360468 -0.021132067
000150 1d 0a 0a 3d 7f 8a 06 3e 6a cb 9f 3d 86 85 de bc
       0.03370105 0.1313877 0.0780247 -0.027163278
000160 7a f7 56 be 08 8d ea bc e1 94 f0 3d 42 d8 ce 3d
       -0.20992842 -0.028631702 0.117471464 0.10099842
000170 ba e2 a6 bc 09 c0 82 3d 05 71 f2 3d bb 05 84 3e
       -0.020371784 0.06384284 0.11837963 0.25785622
000180 ed ad ff bc 46 a5 5b bd dd 88 96 bd 1b 04 a8 bb
       -0.031210864 -0.053624414 -0.07350323 -0.0051274425
000190 89 35 29 3e 90 d8 a4 3d 0b bb 96 3d 8e 50 b3 3c
       0.16524328 0.080491185 0.07359894 0.021888997
0001a0 61 b2 64 bc ef b9 de 3d 71 3f 86 3d 99 95 1c bc
       -0.0139585445 0.10875308 0.06555069 -0.009557151
0001b0 01 76 de bd 02 15 ca bd 81 cf a2 3d d1 28 e4 3d
       -0.10862351 -0.09867288 0.079497345 0.111405976
0001c0 50 5a 87 bc 57 44 a8 bc c6 05 9b bc da 74 73 3d
       -0.016522557 -0.0205404 -0.018923651 0.05943761
0001d0 e1 af d4 3e ab bd 27 3e 29 91 70 3d 98 70 09 3e
       0.41540435 0.16380946 0.058732186 0.13421857
0001e0 aa d5 a6 be 62 dd 0d be 31 1d a2 be 00 86 08 be
       -0.32584888 -0.13853982 -0.31662896 -0.13332367
0001f0 53 94 d9 3d 09 35 0d bd d0 21 78 3e 0b 5c 8f be
       0.10623994 -0.034474406 0.24231648 -0.2799991
000200 62 cd 1b 3d d3 34 41 3d ca 39 98 be 3d 0d b5 bd
       0.038037665 0.047169518 -0.2973159 -0.088404156
000210 fb ae 83 be d2 e1 39 bd 5b 7f a2 be 3a 5b b7 3d
       -0.25719437 -0.045381375 -0.3173779 0.08952947
000220 31 b8 01 be f2 e5 56 bd be 16 55 3e fa 90 34 bc
       -0.1266792 -0.052465387 0.20809457 -0.011020893
000230 6e 93 00 3e 1b f5 a0 3c 33 f6 0d 3e e6 4e ae 3e
       0.1255624 0.019648125 0.13863449 0.3404457
000240 fc 38 1b 3e 95 e3 a3 3e 88 98 99 3d 84 b5 d3 3d
       0.15158457 0.3200957 0.07499796 0.10337356
000250 40 ec 86 bd bc 9e 26 3c 4a 5f a1 be 30 fe 29 bd
       -0.0658803 0.010169681 -0.31518012 -0.041502178
000260 5e 6e a1 bd 27 b3 c6 bd ed 75 95 bd 01 a9 ad 3d
       -0.07882379 -0.09702139 -0.07297883 0.084795006
000270 15 c0 0b be 31 3e 9a be ff c0 f5 bc c5 e3 65 be
       -0.13647492 -0.30125573 -0.029999254 -0.22450168
000280 37 83 8d 3d a2 a5 50 be 01 0d 33 bc 16 68 9d 3c
       0.06909793 -0.20375684 -0.010928393 0.019214671
000290 6f 58 60 3d b2 a0 ab be 0a 61 f5 bc 2c 64 54 bd
       0.054771837 -0.33521038 -0.029953498 -0.051853344
0002a0 d7 e6 97 3d 32 0e 4c bd 8a 73 cd 3d 72 34 9c 3e
       0.07417076 -0.049818225 0.10031803 0.30508763
0002b0 ba 9c 75 be da 8f 47 3e 20 3a 45 be a5 58 a3 3b
       -0.23985568 0.19488469 -0.19260454 0.0049849325
0002c0 a5 96 90 3e c2 9a 3d be e7 37 72 3e d1 3a 18 3d
       0.28239933 -0.18516067 0.23654138 0.037165467
0002d0 13 39 a8 3d 50 24 c6 3d 0c 3a 5d 3e 03 67 97 bd
       0.08214011 0.09674895 0.21604174 -0.07392695
0002e0 36 dc fc 3d 32 ee d7 3c 2b 93 34 bd 70 a5 2d 3d
       0.123466894 0.026358698 -0.044085663 0.0423941
0002f0 ab 57 19 3e d8 af 35 3d 1c e4 54 be 79 95 2c bd
       0.14974849 0.04435715 -0.20790142 -0.042134736
000300 f7 bb 87 3b d9 55 c4 3d 8a 5a 06 be 6c ce a3 3d
       0.00414228 0.09586687 -0.13120475 0.07998356
000310 f7 da c6 bc 0b ba 50 3e e9 09 5d bd a6 32 95 3d
       -0.024274332 0.2038347 -0.05396453 0.07285051
000320 59 df 43 be ec c9 62 be 89 24 34 bb 9d a7 1f be
       -0.19128169 -0.2214734 -0.0027487597 -0.15591283
000330 30 28 c9 3d c6 9d 8c 3e 23 2b 88 3c be ad 3e be
       0.09822118 0.27464122 0.016622132 -0.18620965
000340 8a ca b2 bd 9d b0 1b be 8f 9d a2 3d 2e 5e 17 3e
       -0.087300375 -0.15204091 0.07940208 0.1478202
000350 33 15 c8 bd 3d 6b 4a 3d 76 1c 19 3e 39 b2 d4 3d
       -0.097696684 0.049418677 0.14952263 0.10385556
000360 b2 35 09 be 8e fe 4c 3e 15 f9 a9 3d f9 41 82 bc
       -0.1339939 0.2001898 0.08299462 -0.015900599
000370 a3 44 2e 3e 43 35 13 3b f4 75 a6 3d 61 c6 32 bd
       0.1701837 0.0022462166 0.081279665 -0.04364622
000380 73 b9 e8 bd 38 28 b1 bd 2a 36 8a 3d 7a ca e1 bc
       -0.11363497 -0.08650249 0.06748612 -0.027562369
000390 63 da dd 3d 6b a0 cb 3d a5 ec 1d 3e dd 60 ce bd
       0.108326696 0.09942707 0.15422304 -0.10077069
0003a0 66 fe b4 3b 06 2a af 3d cc 6c 5b be 13 72 1b 3d
       0.0055234907 0.08552937 -0.21428221 0.037950587
0003b0 40 42 2b 3c 9a ee 72 3c a0 3c 89 3e e2 21 c5 bd
       0.010452807 0.014827395 0.26804066 -0.09625603
0003c0 0f 24 5d 3e 18 0b 4f 3d f3 8e 3b 3e cb dd 0a be
       0.21595787 0.05054769 0.1831625 -0.1356117
0003d0 90 8d 90 3d dd 63 f1 bd 87 72 94 bd b4 ac 1b ba
       0.07058251 -0.117866255 -0.07248407 -0.00059385155
0003e0 42 f9 0d bd 8c e2 38 3d a1 5e 25 be 7f 30 41 bc
       -0.03466154 0.045137927 -0.1614938 -0.0117913475
0003f0 82 bb 41 3e 6a 72 2d 3e 8c 5c 8c bd 5c 0b 19 be
       0.18919185 0.16938177 -0.068535894 -0.1494574

gru.weight_hh_l0 f4 [192, 64]
000000 48 3a 2d be 9a 50 9c bd 58 49 f9 bc 8c 42 85 3e
       -0.16916764 -0.07632561 -0.03043048 0.26027334
000010 0e 71 35 bd 31 d5 a7 3d a3 26 39 be 69 58 33 3e
       -0.04429727 0.0819496 -0.18081145 0.17514195
000020 6c 57 88 3e 9f ce 09 be 5e 96 85 bc 7c 88 e0 bc
       0.26629198 -0.13457726 -0.016307052 -0.02740883
000030 94 3b 2f 3d 33 2d 13 be f4 21 91 bd 9a 5b 13 be
       0.042781428 -0.14372711 -0.07086554 -0.14390412
000040 4c a4 ef bd 80 dc 03 be 5c 50 e8 bd 87 8c 99 bd
       -0.11701259 -0.12877083 -0.11343452 -0.074975066
000050 26 50 6d bb 29 c4 20 3e c6 25 e0 bd 22 aa cd 3c
       -0.0036211102 0.15699829 -0.10944705 0.02510554
000060 21 11 92 bd aa 9a 81 3e 51 9d 7b 3e 04 ce 19 bc
       -0.07132173 0.25313312 0.2457173 -0.009387497
000070 60 8f a2 bc 5d 3e 8f 3e 5d 49 74 3c 5d 59 98 be
       -0.019843757 0.27977267 0.014910069 -0.2975568
000080 20 e1 0b 3e 72 1c 98 3b 67 9c a6 be d7 1f cf 3c
       0.13660097 0.004642063 -0.325412 0.025283737
000090 33 ea 76 3d 4d 72 9c bd 3b 08 c6 bd c4 65 37 3d
       0.060281944 -0.07638989 -0.096695386 0.044774786
0000a0 a5 19 0f 3e 2e 51 eb bd 23 fe b0 3d 3d 20 87 bd
       0.13974626 -0.11490093 0.08642223 -0.06597946
0000b0 38 c3 34 3d e2 3f cd be 7c ad f5 3d a4 48 be bd
       0.044131488 -0.400878 0.1199598 -0.09291199
0000c0 b5 38 f8 bb 29 07 9a 3e d2 46 55 3a a0 3b 98 3c
       -0.0075751194 0.30083588 0.0008135858 0.018583119
0000d0 8b db 64 bd db 46 45 3d 81 b2 05 be 4e be 3e bd
       -0.055873435 0.048163276 -0.13056375 -0.046568207
0000e0 b9 7f b0 3d 37 91 00 bd ba 7f f1 bd 30 0c 27 3e
       0.08618111 -0.031388488 -0.1179194 0.16313243
0000f0 5d 6e 9d 3e ea a1 f4 bd c5 53 75 bd 88 a5 a0 bd
       0.30748263 -0.11944945 -0.059894342 -0.078440726
000100 6c eb ff bd 21 2a 1e 3e af 7a 11 be 09 6e d7 3c
       -0.12496075 0.15445758 -0.14206956 0.026297586
000110 fb d1 13 be 30 27 dc bd 44 ca c2 b8 60 a2 6e bd
       -0.1443557 -0.10749662 -9.288316e-05 -0.05826032
000120 43 90 de bd cb 9f 39 bd de d5 12 bd f8 0f 0c be
       -0.108673595 -0.045318406 -0.03584849 -0.13677967
000130 08 3b 05 3d f5 e2 53 bd 13 e0 23 bc 8e cc 3c 3e
       0.032527 -0.051730115 -0.010002154 0.18437406
000140 5e 7e 3c 3e 4f 2c ec 3d 33 a4 22 3c 1d c9 73 3c
       0.1840758 0.11531889 0.009926843 0.014879492
000150 40 45 63 be 90 1b d3 3c 9a 3b ca bc 04 69 87 be
       -0.22194386 0.025769979 -0.024686623 -0.26447308
000160 86 90 98 3d 84 df 04 3e 16 7b fa bd ea e1 79 bc
       0.07449441 0.1297589 -0.12230508 -0.015251616
000170 53 c5 21 be 74 d4 35 3d 4e 8a 07 be 4f a9 5b be
       -0.1579793 0.044392064 -0.13236353 -0.21451305
000180 94 29 4a 3e cd dd e4 3d 18 ed b6 bd 63 68 0a be
       0.19742423 0.11175118 -0.08931941 -0.13516383
000190 40 8e 7d bd 3c 98 2f be d8 63 95 bd 6e 83 03 3e
       -0.06190324 -0.17147917 -0.07294434 0.12843105
0001a0 86 45 25 3e f8 33 42 3e 56 44 24 3e e7 28 a5 3c
       0.16139802 0.18965137 0.16041693 0.020161105
0001b0 b4 7a 5e be 7c 09 60 3c 8b eb 44 bd 83 f5 03 3b
       -0.21726495 0.013674136 -0.048076194 0.002013535
0001c0 2c 2c 4a 3e f2 68 ca bd 93 4c 6c bd 4a aa d5 bd
       0.19743413 -0.09883298 -0.057690214 -0.10432871
0001d0 d5 3f 3a 3e 4f 5a 05 3d 5e a1 7f 3d 3c 43 b0 3e
       0.18188412 0.032556828 0.06240975 0.34426296
0001e0 6d f5 63 be e4 2f 34 3e 6b 66 5e 3b a2 ed d2 bc
       -0.22261591 0.17596394 0.0033935558 -0.025748078
0001f0 06 89 ae 3d 72 e7 35 3e 98 43 99 3c b0 8e 4b 3e
       0.08522229 0.1776407 0.018708989 0.1987865
000200 2e f8 34 bd 1b 96 19 3c b7 f4 ec 3d 3a e2 35 be
       -0.044181995 0.009374167 0.11570113 -0.1776208
000210 b3 ec 5a 3e c2 a5 0e 3e 42 b1 e1 3d 30 14 65 3d
       0.21379356 0.13930419 0.11020137 0.055927455
000220 58 45 af 3c f3 a0 6c 3d 42 de c5 3d 24 0e a5 bd
       0.02139537 0.05777068 0.09661533 -0.08059338
000230 f6 90 4b 3e f5 83 70 be bf ec 3c 3d 8f 50 8e 3a
       0.19879517 -0.23487838 0.046124216 0.0010857749
000240 5e d8 0e be 1f 55 3c be e4 7b e4 bd 88 1b a3 3e
       -0.13949725 -0.18391846 -0.11156443 0.31856942
000250 60 65 91 be 8c 2f f7 bd 72 af 39 3e 51 17 93 bd
       -0.28397655 -0.12069616 0.18133333 -0.071821816
000260 32 88 0c be 42 b7 77 3d c1 f7 7d be 02 ae 91 be
       -0.1372383 0.060477503 -0.24801542 -0.2845307
000270 43 7e 16 be 61 10 71 bd 49 07 9f 3c 70 fd 1d be
       -0.14696603 -0.05885351 0.019412654 -0.1542871
000280 3d 80 0c bd fd 33 1b be 8f f8 30 bc f7 e0 52 be
       -0.034301985 -0.1515655 -0.0108014485 -0.2059363
000290 63 b3 f8 3b 80 46 66 3e 52 39 2c be af bc 07 3d
       0.007589744 0.22487831 -0.16818741 0.033138927
0002a0 fd 03 17 be 32 f6 af 3d 3b ae b1 3d a8 83 f2 3d
       -0.14747615 0.0859188 0.0867581 0.11841518
0002b0 5b 74 06 bd d6 80 1f be 36 0e 72 3d 03 f3 2b be
       -0.03282581 -0.15576491 0.059095584 -0.1679192
0002c0 c5 23 b7 bd 0b 87 5a be a9 6f ad 3d 61 8f 5e bc
       -0.08942369 -0.21340577 0.08468563 -0.013583989
0002d0 0f 09 19 be ce 6a 13 bd 47 0a 1f 3e 72 27 22 3e
       -0.14944862 -0.03599053 0.15531264 0.1583536
0002e0 48 fb 19 3c ed 37 63 bb a0 2a 69 be a6 99 c7 bd
       0.009398289 -0.0034670786 -0.22770166 -0.09746103
0002f0 56 d4 25 3d b0 5a 92 3d 08 b3 02 bd 7a 5e 4e be
       0.040485702 0.071462035 -0.03190902 -0.20153227
000300 71 38 1b be fe 1b cb ba dd 4d 9e 3e 3f 11 f8 bd
       -0.1515825 -0.0015496013 0.3091878 -0.121126644
000310 20 ef 89 3e 9d 3a b7 bb 39 26 ee 3d e6 c0 f6 bd
       0.2694025 -0.005591704 0.11628384 -0.12048511
000320 a0 3e 04 be bb ac 35 bc 6f 5c 7e bd 25 90 20 be
       -0.12914515 -0.011088545 -0.06209987 -0.15679987
000330 dc 68 d0 3d 86 52 14 3e 75 49 42 bd 69 69 30 3e
       0.1017625 0.14484605 -0.047433335 0.17227711
000340 80 f4 43 3d 64 ce ce bd 97 30 d9 bd 04 bf 29 be
       0.047840595 -0.1009796 -0.10604971 -0.16576773
000350 d5 e7 00 3d 28 ea 0d be 94 00 7b 3d 78 eb 4c be
       0.031471092 -0.13858855 0.06127985 -0.20011699
000360 cb 71 3b bd 1a d0 c7 bd 52 45 d4 bc 45 5f 27 be
       -0.04576282 -0.09756489 -0.02591196 -0.16344936
000370 94 63 2a be 44 b3 bc 3d 9f 11 f7 bd 01 13 fb 3c
       -0.16639549 0.0921388 -0.12063908 0.03064871
000380 11 d3 36 3e 5a 92 ac bd 84 9f f4 3d 2a a2 be bd
       0.17853953 -0.08426352 0.11944488 -0.09308274
000390 38 bc 33 3e 53 d1 d4 bc c8 a7 5e 3d c0 2c 90 3e
       0.17552269 -0.02597872 0.054359227 0.28159142
0003a0 98 18 78 3d 9c 7d 75 3e 4f 88 3d bc dc b6 fa bd
       0.06057033 0.23973697 -0.011568143 -0.12241909
0003b0 fc 60 de 3c 6c ad 0b 3c 80 93 0e 3e 78 09 95 bd
       0.027145855 0.008525234 0.13923454 -0.07277197
0003c0 8e d4 dc 3d bb 9e 4f bd fb ca d8 3d 09 a3 05 3e
       0.10782729 -0.050688487 0.105855905 0.13050474
0003d0 29 6a df bd 1d b3 d2 3d 0a 19 bb bd 72 d6 ec 3d
       -0.1090892 0.102880694 -0.09135635 0.1156434
0003e0 29 f5 3f be 24 9a 59 bc 2b f6 2b be d8 dc 9f bd
       -0.18745865 -0.013281379 -0.16793124 -0.078057945
0003f0 d4 77 1b 3d d6 91 b9 3d 29 18 28 be 9a 5e 6a be
       0.037956074 0.09061019 -0.16415466 -0.2288765

gru.bias_ih_l0 f4 [192]
000000 19 1f ff bb 0f 99 31 3e 59 a1 93 3c c1 be a1 3d
       -0.0077856896 0.17343543 0.018021272 0.078977115
000010 7c 69 33 3d 96 7b e3 3d 83 e4 77 bd 63 91 b4 bd
       0.04380177 0.111075565 -0.06052066 -0.08816793
000020 90 e9 f2 bc b0 f0 9e 3b 8f b4 20 be a2 c5 01 3d
       -0.029652387 0.0048504695 -0.15693878 0.031682618
000030 fb f8 bd bd 59 59 2b 3e 84 12 8e 3d 0c 04 9a bd
       -0.09276005 0.16733302 0.06937125 -0.07520303
000040 10 57 ab 3d 5d 70 ff bc 9b 88 42 bd 26 11 90 bd
       0.08366215 -0.031181509 -0.04749356 -0.07034521
000050 0a aa b5 3d 2c 67 d7 bd d6 84 09 3e 2f 23 a7 bd
       0.08870323 -0.10517725 0.13429579 -0.081610076
000060 95 02 e3 bc 63 93 d1 3d 01 66 a5 bd 02 6f 00 3d
       -0.027711192 0.1023319 -0.08076096 0.031355865
000070 3d 18 85 3d 3e a8 57 3e b1 5f 53 bd fc 9d 1a bd
       0.06498764 0.21060273 -0.05160493 -0.037748322
000080 e7 ef 94 3c fe 0c 9a bd ee c1 03 be b6 d9 2e 3e
       0.0181808 -0.07522009 -0.12866947 0.17075238
000090 6c 7a df bd 41 0a 7e 3d 89 6e d8 3d f7 1e eb bc
       -0.10912022 0.062021498 0.10567958 -0.028701289
0000a0 3a 4f 43 bd 9e be 3d bc 45 c7 7f 3d cd 1f 10 3d
       -0.04768298 -0.011581091 0.062445898 0.035186578
0000b0 51 84 39 3e cd dd 41 3e 8b c4 06 bc f8 23 17 3e
       0.18116881 0.18932267 -0.00822557 0.14759815
0000c0 aa 94 91 bd 26 49 2b 3e b5 21 8c bd da b1 de bc
       -0.071084335 0.16727123 -0.068423666 -0.027184416
0000d0 e7 55 22 3e a4 14 ee 3d f5 6f 99 bd 25 75 0f 3e
       0.15853082 0.11625031 -0.07492057 0.14009531
0000e0 de 72 aa bd c6 50 1e 3c 43 bd 25 bc 53 c6 c4 bd
       -0.083226904 0.009662813 -0.010115924 -0.0960814
0000f0 26 80 61 3d 3e 2b cc 3d a1 5b 3d bc 6f f3 40 bc
       0.055053852 0.09969185 -0.011557491 -0.011776789
000100 22 8b de bd ff 4c 26 bd 14 97 bb 3d 8c 11 c6 bd
       -0.10866381 -0.040600773 0.09159675 -0.096713156
000110 75 4e db bd ac 90 a0 bd 5e 84 84 bc 37 07 26 3e
       -0.10708324 -0.07840094 -0.016176399 0.1621369
000120 76 8f 2c 3e 83 17 88 3d 22 32 0c bd 77 50 71 bc
       0.16851601 0.066451095 -0.034227498 -0.014728657
000130 fe 19 82 bd 78 b6 ef bd 60 6b 6e 3d 9f 73 1e bd
       -0.06352614 -0.11704725 0.05820787 -0.038684484
000140 24 04 b0 bc 6c d5 d9 bd a4 a9 09 bb ae d3 a7 bc
       -0.02148635 -0.1063641 -0.0021005655 -0.020486679
000150 ef 33 4e be 10 e1 2a 3e 10 42 a7 bd 2d 5d cd bd
       -0.20136999 0.16687417 -0.08166897 -0.100275375
000160 8d a9 e8 bd 1e b9 c7 3d 01 85 00 bd 78 bb a4 3d
       -0.11360464 0.09752105 -0.031376842 0.08043569
000170 57 5e bc 3b f5 9a f3 3b 50 0f 0e bd 30 8b 43 3d
       0.005748551 0.007434244 -0.034682572 0.04774016
000180 dd 2a 1f be 1d cd 08 3e 04 e9 38 bd 24 8a 8a be
       -0.15543695 0.13359495 -0.045144096 -0.27058518
000190 97 72 13 3d cb 86 2f 3d 48 4e a6 bd 87 3c 84 bd
       0.035997953 0.042853158 -0.081204 -0.06456857
0001a0 f3 58 24 bd db ce 88 3d c7 c2 37 be a1 bd 4c 3d
       -0.04012389 0.066800795 -0.17945395 0.04998553
0001b0 3e 8e 5f 3d bf 50 91 3d c3 1e 05 be eb c3 22 3e
       0.054579012 0.07095479 -0.13000016 0.1589505
0001c0 54 3d 3a ba 7d 0e 80 3c 49 f9 f5 bc d7 51 ba 3d
       -0.00071044755 0.015631909 -0.030026095 0.09097641
0001d0 76 97 95 bd 68 52 16 be f1 d2 49 bd 9b a8 e6 bb
       -0.073042795 -0.14679873 -0.049273435 -0.0070391423
0001e0 6f 6d 1c 3e c9 3a 33 bd 56 bd af bd 63 9e 73 bd
       0.1527612 -0.043757234 -0.08581035 -0.05947722
0001f0 dd 2b 20 be 1b d0 36 be ce ad b6 3d 17 ce f0 bb
       -0.15641733 -0.17852823 0.08919869 -0.0073487866
000200 60 70 9b bd f1 eb 33 3d cc 3d 0f 3d 10 f6 4b 3c
       -0.07589793 0.043926183 0.034971043 0.012448803
000210 a1 9a 24 bd 53 b5 38 3c d3 89 bc bd 3c c7 7e 3d
       -0.040186528 0.0112737 -0.092059754 0.062201723
000220 45 71 0a 3e 07 79 87 3b da 86 80 bd 61 5a 12 3c
       0.13519771 0.0041343006 -0.06275721 0.008932681
000230 bf 99 92 3d 05 dc ed 3b 40 7e e0 3d ee f5 95 bd
       0.07158231 0.0072588944 0.1096158 -0.07322298
000240 5e ed 01 bd 0b 5b 5c bc e9 52 89 bd 30 9d 36 bd
       -0.03172051 -0.013449441 -0.06705267 -0.0445835
000250 72 14 62 bd a4 fe 4c 3d a7 0f 50 bd b8 7d 29 3c
       -0.05519528 0.05004753 -0.050796177 0.010344915
000260 d6 cb 1f bd 60 67 a5 3c a4 f0 54 3d 61 2e 09 3d
       -0.039012752 0.020190895 0.051987305 0.033491496
000270 7c 71 b1 bc ef 31 ab 3d 8e 63 85 3d f4 fe 46 bd
       -0.021660559 0.083591335 0.06513129 -0.048582986
000280 0d 87 42 3d 59 43 a6 3c 14 b6 ce bd a9 da 2f 3d
       0.047492076 0.020295786 -0.100933224 0.04293314
000290 84 ed ba bc b1 9c 3a 3b e9 16 43 3c 5b ac 20 bd
       -0.022818334 0.0028474743 0.011907318 -0.03922687
0002a0 ac b3 8e bc 14 08 9f bd aa 7a 78 3c c0 86 af 3d
       -0.017419659 -0.07765213 0.015165964 0.085706234
0002b0 03 9c c7 bd 09 ab 53 bd 3f 88 82 bb f8 8d b9 bd
       -0.09746554 -0.051676784 -0.003983527 -0.090602815
0002c0 6d d5 9b bd cc db b5 3d 8b 6f ac 3c 5c 34 de 3d
       -0.07609067 0.088798136 0.021049282 0.108498305
0002d0 04 16 be 3d ae fa 26 bd 1c 8f 1c bb dd 06 a5 3c
       0.09281543 -0.04076641 -0.002388901 0.020144874
0002e0 56 d3 06 3d 15 40 3a 3d 9d fe d5 bc 3d 15 85 3d
       0.03291639 0.04547127 -0.026122386 0.064981915
0002f0 2b 77 a2 bd 0a cf b6 bc ec c0 d3 bd 10 48 b0 3d
       -0.07932886 -0.02231552 -0.10339531 0.08607495

gru.bias_hh_l0 f4 [192]
000000 48 e2 f5 3d 79 86 ff 3c 6c f9 d4 bd aa 37 9d 3d
       0.1200605 0.031192051 -0.10399136 0.07676633
000010 85 b9 aa 3d cd 3f aa 3d c3 0d c0 bd 4e 84 05 bd
       0.08336166 0.0831295 -0.09377625 -0.03259688
000020 4c 2a 2e bd 6b 11 1f bd 52 d8 0b bc 40 c3 76 3e
       -0.042520806 -0.03883497 -0.0085354615 0.2409792
000030 8a e6 11 3c 14 a1 1b 3e 0a 4c 2e 3d 9a 55 0f 3c
       0.008905062 0.15198165 0.042552985 0.008748436
000040 c6 9c 9a bd 2e bc fb bc 9a d2 23 be 55 ad 8b bd
       -0.075494334 -0.03072938 -0.15998307 -0.0682017
000050 90 6b ab bc bb 56 1d bd 3e 46 52 bd 30 25 40 3d
       -0.020925313 -0.03841279 -0.05133652 0.046910465
000060 66 89 e4 3d af f8 e2 3d 7f 10 19 3d 5c 95 45 3c
       0.11159019 0.11082589 0.037369248 0.012059536
000070 c7 41 05 3c f8 a2 9c 3d dc 57 73 3d 10 29 bb bd
       0.008133358 0.07648271 0.05940996 -0.091386914
000080 92 f8 07 bb 51 95 e2 3d 26 d8 e0 bc 8b ee 78 3e
       -0.0020747525 0.11063636 -0.027446818 0.24309747
000090 f3 69 0a be 81 3e 98 3c 19 80 2f 3d 88 ea e9 bc
       -0.13516979 0.018584492 0.042846773 -0.028554216
0000a0 1d a5 86 bd 23 8c ae 3c 6f 3d 77 bc 75 84 7e 3c
       -0.065744616 0.021307057 -0.0150903305 0.01553451
0000b0 8a 10 49 3e 57 1a 0e 3e ab 82 92 3d 4f 31 23 3d
       0.19635215 0.13877235 0.07153829 0.039841946
0000c0 68 17 51 bd df 36 cc 3d 52 f7 71 3d 59 8d 84 3d
       -0.051047713 0.09971403 0.059073754 0.064722724
0000d0 60 f7 30 3b c6 5a b5 3d 2a 20 f4 bc d3 3a 17 3c
       0.0027002916 0.08855204 -0.029800493 0.009230333
0000e0 3b c2 4d bc ae fe 3d 3e 90 20 e0 3d d6 71 68 bd
       -0.012558515 0.18554184 0.10943711 -0.056749187
0000f0 07 27 e2 bc 50 d0 ed bd 27 f4 94 3d c8 2b 06 be
       -0.0276065 -0.11611998 0.07273131 -0.13102639
000100 c5 1c 2d 3c 4f 64 11 be cf 29 ae 3d da 94 a5 3d
       0.010565941 -0.14198421 0.08504068 0.08085032
000110 aa e8 90 bd 11 50 f9 3c 69 41 3b 3d 44 93 83 bc
       -0.07075627 0.030433686 0.045716677 -0.016061433
000120 41 a5 12 bd 10 e3 1f 3d 9d 00 61 3d 96 6d df 3d
       -0.03580213 0.039034903 0.054932225 0.10909574
000130 b1 4e 92 bd 19 ea 9b bd 6c 8c 75 3d 79 e7 dd bd
       -0.071439154 -0.0761301 0.05994837 -0.108351655
000140 ae 23 e7 bc f9 d1 2f bd 18 a4 d8 3d 01 9b 69 3d
       -0.028215256 -0.042924855 0.105781734 0.05703259
000150 c3 26 b0 3c 8b b2 29 3e b3 82 10 3d b2 98 91 3c
       0.021502858 0.16572015 0.035280894 0.017773006
000160 1c a6 f5 bd 10 d1 d9 bc e5 b8 0a 3d a5 ac b1 3d
       -0.119945735 -0.026588947 0.033867735 0.086755075
000170 55 be 95 bb 69 d3 bd bd 92 f1 56 bd 27 ae bc bc
       -0.0045698085 -0.09268839 -0.052476473 -0.023032261
000180 e0 8d 58 be ae 10 28 3e 27 12 76 bd 80 ca 2c be
       -0.21147871 0.16412613 -0.060075905 -0.16874123
000190 2b 14 92 3d 05 32 ac bc 8d 90 3c be 38 a4 89 3d
       0.07132753 -0.021019945 -0.18414517 0.06720775
0001a0 45 ba 5f bd 31 fe 19 be 06 c4 f5 bd 71 b1 d7 bd
       -0.054621 -0.15038373 -0.12000279 -0.10531891
0001b0 ec 91 91 bd 68 d6 e6 bd 91 bb 4a 3d b9 cd c1 bc
       -0.071079105 -0.112713635 0.049495284 -0.023657667
0001c0 66 ca c2 bd be bb 6f 3d 95 22 96 bd 38 87 6d 3d
       -0.09511261 0.058528654 -0.07330815 0.057990283
0001d0 33 1f fa 3d e1 cc ac bd 54 93 27 3e 0a 6f 03 3e
       0.12212982 -0.08437515 0.16364795 0.12835327
0001e0 99 e4 05 3e b7 fe 4c be 96 8f 87 bd bd a3 58 bd
       0.13075484 -0.20019041 -0.06619184 -0.052890528
0001f0 8b d8 9d bd 85 b6 0e be 89 f9 99 3b 04 91 97 bd
       -0.07707318 -0.13936813 0.0046989364 -0.074007064
000200 68 68 97 3c 57 15 6f 3c 32 e1 5d 3c 90 57 cc 3d
       0.018482402 0.01459249 0.01354246 0.09977639
000210 38 46 bd bd 87 a9 df 3d c8 e3 03 3e 54 47 06 3c
       -0.09241909 0.10921007 0.1287986 0.008195717
000220 67 56 b3 bc 1e 32 dc bd ba ec 22 3d ea b9 19 bd
       -0.021891786 -0.107517466 0.03977654 -0.037530817
000230 25 0d 78 bd 74 84 d3 bc 79 a6 f1 bd c2 4d 92 3c
       -0.06055941 -0.025819995 -0.1179933 0.017859343
000240 d5 b1 ca bd 33 ac 9b 3d cf 35 5e bd 38 85 d1 bd
       -0.098972 0.07601204 -0.054250535 -0.102304876
000250 4b 43 e4 3d 36 4a 0d bd cf fc d5 bd da 4a c0 3d
       0.111456476 -0.0344946 -0.1044861 0.09389277
000260 dd b2 0b be ab e6 30 3d 81 75 2f 3d 95 f7 35 3c
       -0.1364245 0.043188732 0.04283667 0.011106391
000270 90 5b 3a bd 1c 0b 88 3d 76 ba 87 bd 63 60 2f bc
       -0.045497477 0.06642744 -0.066273615 -0.010704133
000280 ce a7 1a be 33 84 97 3d e1 07 9d bc 3a 16 55 3d
       -0.15103075 0.07398262 -0.019168796 0.05202315
000290 fb 67 cc 3d c4 b1 26 bc eb 73 0d be 6b d1 e0 3c
       0.0998077 -0.010174219 -0.1381375 0.027443608
0002a0 2f 21 3d 3d df 15 21 bd 24 c4 96 3d ab ff ba 3d
       0.046174224 -0.0393275 0.073616296 0.09130796
0002b0 90 ee fb 3d 03 ae 97 3d cd ce 44 bc 46 77 8c 3d
       0.123013616 0.07406237 -0.012012196 0.06858687
0002c0 5c 03 9c 3d 0d 26 1d bc c7 de f1 bd 3d 37 ed 3c
       0.07617828 -0.009591592 -0.118100695 0.028957004
0002d0 fd ab 63 3c a8 d4 03 be 86 f9 82 3d 8a 53 b4 bd
       0.013895986 -0.1287409 0.06395249 -0.08804996
0002e0 5f 0d cc 3c e3 38 c0 3d d1 e4 a1 3d 16 2b 43 3c
       0.02490872 0.0938585 0.079049714 0.011912128
0002f0 94 a5 be 3c 04 7b b7 bb f1 fa 1c bd 76 ab f1 3d
       0.023272313 -0.0055993814 -0.038325254 0.11800282

gru.weight_ih_l1 f4 [192, 64]
000000 58 a3 04 bd bb 8c df 3d 99 50 7e bd df f8 dd bb
       -0.03238234 0.10915514 -0.062088583 -0.0067740525
000010 19 22 7b 3d 0b cd ea bb e5 a2 25 bd 6d 62 ce 3b
       0.061311815 -0.0071655563 -0.04043855 0.0062983544
000020 56 0e 88 bc 67 5e 89 3d 62 b6 5c 3d cf 73 56 be
       -0.016608398 0.06707459 0.05388487 -0.20942615
000030 70 7a 1b 3c 03 d9 52 be 78 2b e3 3c a7 1f 17 3d
       0.009489641 -0.20590596 0.027730688 0.03689542
000040 ed a1 0f 3e 14 76 27 3d 5b a0 b0 3c 78 3a f4 bd
       0.14026614 0.040884092 0.021560838 -0.119252145
000050 2f 36 1f bd 59 e3 38 3d 5e d4 66 3d 4b a3 e2 bd
       -0.038870033 0.04513869 0.056354873 -0.11066302
000060 dc 6f 70 bd d2 e3 47 3d 8b e1 a2 3d 79 39 b0 bd
       -0.058700427 0.04880125 0.07953175 -0.08604712
000070 6a 8e 08 bd 28 7b 2c 3e 97 04 1d be b3 98 e2 bd
       -0.03333894 0.16843855 -0.15333782 -0.11064281
000080 bb 18 2f bc 6a 57 5b 3c 05 78 9a bd 1c 58 44 3d
       -0.010687049 0.01338754 -0.07542423 0.04793559
000090 c4 e1 fc 3d f2 02 c6 3c 55 8b 8e bd d7 1d 15 3d
       0.12347749 0.024171326 -0.06960169 0.03640541
0000a0 a8 35 a3 bd 05 38 36 3d ef 39 f7 bc df 2c ee bc
       -0.079692185 0.04448702 -0.030178992 -0.02907413
0000b0 82 c0 82 bd ad a7 b7 bd 0c 97 10 be f6 bd a8 3c
       -0.06384374 -0.089675285 -0.1412012 0.020598393
0000c0 12 d5 09 3e 7e 65 54 bd 31 fa 15 3e fc b3 ce 3c
       0.13460186 -0.051854603 0.14646222 0.025232308
0000d0 86 cb 6b 3e 63 42 1c bc a7 af c3 3c ce 75 58 3d
       0.23026857 -0.009537312 0.023887469 0.052846722
0000e0 34 84 d2 bd 2a 40 fc 3d 6c 2b 30 3e cf bb 93 bd
       -0.10279122 0.12316926 0.17204064 -0.07213556
0000f0 1d 61 98 bd 44 1b 08 be bb e4 b8 bd 41 91 59 3d
       -0.07440398 -0.13291651 -0.09028002 0.05311704
000100 1b 25 9d bd 81 90 d6 3d 63 2b 93 be d4 80 f1 bd
       -0.07673093 0.10476781 -0.2874404 -0.1179215
000110 54 7a e9 bc aa ce d7 bd 40 d0 12 be 10 56 8f 3d
       -0.028500713 -0.10537465 -0.14337254 0.06998837
000120 c7 b8 8d bd 86 cb b6 3d 8d 06 04 bd 08 15 45 3d
       -0.06920009 0.08925538 -0.03223281 0.04811576
000130 fe fc 5b be 90 e2 41 be b0 2e 09 be c1 fc 2f be
       -0.21483228 -0.18934083 -0.13396716 -0.17186262
000140 84 78 a3 bc e8 7a c3 3d 3d 63 0e 3e 7f ae 64 3c
       -0.019954927 0.09544927 0.13905044 0.013957619
000150 e9 2e f0 3c 4d ed 38 bb 3d 95 21 bd 6c 33 61 bd
       0.029319244 -0.0028217614 -0.039448965 -0.05498068
000160 e6 09 34 3c ce 50 a8 3d d6 4e 1c 3e 63 b6 eb bc
       0.010988688 0.08218537 0.15264449 -0.028773492
000170 e5 5f 28 3c 8c e1 8b bd 09 fb 4d be b0 cb 41 be
       0.010276769 -0.06830129 -0.20115294 -0.18925357
000180 14 d1 4e bd a3 16 38 be fd a9 44 be 74 8d 2d bd
       -0.05049236 -0.17977385 -0.1920547 -0.04237123
000190 2c 12 33 3d ce 99 1e bc a5 76 30 be f1 1f 7b bb
       0.043718502 -0.009680225 -0.1723276 -0.00383186
0001a0 d3 10 19 bc 3a 00 c6 3d 8a 4f 97 be eb f3 8a 3d
       -0.00934239 0.09668012 -0.2955287 0.06784805
0001b0 f5 a4 b9 3d b3 6c ef bd 4d 75 0c be 5f 15 1d be
       0.09064666 -0.116906546 -0.13716622 -0.15340184
0001c0 6f 53 8a 3d a9 38 2d be 1a 50 36 bd 35 76 04 3e
       0.06754195 -0.16916145 -0.044509985 0.12935717
0001d0 87 06 70 3e 28 4c 5a 3c 3c 22 6c bd 93 c0 7f bd
       0.2343999 0.013323821 -0.057649836 -0.062439512
0001e0 b8 03 24 3d 6d a8 d7 3c c9 ed 84 3e 8c 00 dd 3d
       0.04004261 0.026325429 0.25962666 0.1079112
0001f0 fe e3 e1 bc ef 8e 22 be 98 71 30 3d ae 3c 0f 3e
       -0.027574535 -0.15874837 0.04307708 0.13987991
000200 5d 98 5b bd 67 88 c1 3c 5c 15 34 be 2e 7d 60 bd
       -0.0536121 0.023624612 -0.17586273 -0.05480688
000210 1d b2 9c bd 23 c5 19 be ae 91 fa bc f9 c0 55 3d
       -0.0765116 -0.15016608 -0.030587044 0.052185986
000220 60 9d 09 be 6d ad fd 3c 4d fa bc bd 5a 9f be bd
       -0.1343894 0.030966485 -0.092274286 -0.09307738
000230 b5 34 b9 bd 71 13 8d be 35 89 be bc d1 b7 1c be
       -0.09043256 -0.27553895 -0.023258785 -0.15304495
000240 4b 80 1e 3d 40 6f b6 3d 0f 16 ca 3a 51 6c 4e bd
       0.03869657 0.08907938 0.0015417951 -0.050396267
000250 59 d4 01 3d 01 48 05 be 38 54 ec 3d 50 31 07 be
       0.03169665 -0.13015749 0.11539501 -0.13202405
000260 aa 29 eb 3d e7 9e 62 bd 4c f7 e4 3c 3d 0d 1c 3c
       0.11482556 -0.055327322 0.027949952 0.009524641
000270 c2 e7 60 be 3d b8 6b bc 58 ef 9a bd a5 ca 8b bd
       -0.21963409 -0.014387188 -0.075651824 -0.06825761
000280 91 f7 fc 3b a2 a9 b2 bd 04 4f 16 3e 75 d9 02 bd
       0.007719942 -0.08723761 0.1467858 -0.031945664
000290 b4 42 7c bd 8e a1 10 be 03 e5 63 3d 7f db e5 bd
       -0.06158705 -0.14124128 0.055638324 -0.11223506
0002a0 e5 cd 12 be 50 a4 30 bd 9f 31 f8 bd 60 15 e4 bd
       -0.14336355 -0.04312545 -0.121188395 -0.111368895
0002b0 bb 2c 42 3e a0 36 67 bd 75 10 16 3e 85 70 52 bd
       0.18962376 -0.05644858 0.14654715 -0.05137684
0002c0 32 45 83 3d 5f 58 18 be aa 8f 4a 3d fc 2c cf 3d
       0.06409682 -0.14877461 0.049453415 0.10116002
0002d0 42 79 d6 3d 80 9e 22 3d 23 22 cb 3c 55 ad 0e bb
       0.10472347 0.03970194 0.024796551 -0.0021770794
0002e0 7b bd 9c bd 7f 7f 08 bd 6b d9 c8 3d 04 72 38 3a
       -0.07653328 -0.033324715 0.09807094 0.00070360326
0002f0 ac 74 a0 3d 71 cc 4c be f1 dd 7f bd 7b 83 f3 bc
       0.078347534 -0.19999863 -0.06246752 -0.02972578
000300 ed a9 02 bc 55 bd 46 3d c4 07 67 3d 10 d0 07 3c
       -0.007975084 0.048520405 0.05640389 0.008289352
000310 2a 10 89 ba ec 52 08 be 60 28 f7 bd 48 06 73 3d
       -0.0010457088 -0.13312882 -0.12068248 0.059332162
000320 ad b7 65 bd 8f 4c 47 3e 75 86 af bd 5a 90 5d bd
       -0.05608337 0.19462799 -0.085705675 -0.054092743
000330 d9 e8 54 bd 69 62 8f bd 3a 1a 3f 3e 40 f1 18 3e
       -0.051979873 -0.07001192 0.18662348 0.1493578
000340 70 17 2d 3e e8 6d c6 3d 3d 56 44 be d0 9c 6a be
       0.16903472 0.09688932 -0.19173522 -0.22911382
000350 3a f1 a5 3d 1c d2 1d be 29 06 4d bd 92 14 5c 3d
       0.08102651 -0.15412182 -0.050054703 0.053730555
000360 8f 5e d7 bc 40 ec 36 3c 27 e6 cb bb 46 d5 68 3e
       -0.026290206 0.011164725 -0.0062225047 0.22737607
000370 2d 46 9c bd 2a 98 20 be 7d 64 ad bd 88 5b a6 bd
       -0.076305725 -0.15683046 -0.08466432 -0.08122927
000380 e4 de 44 bd 08 f4 09 be ff 94 09 3e 6b 8c 4c 3d
       -0.048064128 -0.13471997 0.13435744 0.0499386
000390 fb 0a c7 bd 71 bb 30 bd 95 f2 a3 3e fe 1f c6 bd
       -0.09718891 -0.043147508 0.32021013 -0.09674071
0003a0 a2 52 1e be f3 c8 38 bd ad 30 17 3d cd 9f a4 3c
       -0.1546121 -0.045113515 0.036911655 0.02009573
0003b0 0a a0 e4 3d 99 81 9a bd 72 d2 0e 3e b5 ba e6 3d
       0.111633375 -0.0754425 0.13947466 0.1126608
0003c0 45 e4 75 3e 35 c2 39 3c 55 fe 1c be 04 05 19 bd
       0.24012859 0.0113378065 -0.15331395 -0.0373583
0003d0 91 1a d4 3d 7e 07 1d 3e e6 1c a1 3d 06 dc 3f 3d
       0.1035663 0.1533489 0.0786684 0.04684069
0003e0 8a 47 14 3e 6b 33 a3 3d cd c8 9a bd f5 a9 98 3d
       0.14480415 0.079687916 -0.07557831 0.07454292
0003f0 01 29 02 3d ca 2e 3f bd 7f 86 b8 bd 38 2c c1 bd
       0.031777386 -0.04667548 -0.09010028 -0.09432262

gru.weight_hh_l1 f4 [192, 64]
000000 2e 17 5b bd 9f e6 90 bc 53 2a 08 3d 5d e0 14 be
       -0.053488903 -0.017688094 0.03324349 -0.14538713
000010 1e b4 47 bd 90 58 1e 3c c0 8f 2b 3d 32 ad e5 3c
       -0.048755758 0.00966467 0.041885138 0.028036688
000020 14 ff aa bd 6a 72 f1 3d f3 79 f9 3c f9 10 2c bb
       -0.083494335 0.11789401 0.030453658 -0.0026255234
000030 2d cd aa 3d 17 f2 1d be 85 26 9f bd 0e ad ac bd
       0.083399154 -0.15424381 -0.07771019 -0.08431445
000040 46 dd cf 3d a8 18 86 3a b4 c2 43 3e de 59 a3 3d
       0.101496264 0.0010230737 0.19117242 0.07976125
000050 79 41 1a 3d 4d 84 e4 3d 34 76 f3 bd c8 48 86 3c
       0.037660096 0.11158047 -0.1188778 0.016392127
000060 e6 d2 76 3c 81 69 22 bc 7f ed 86 bc 8e b4 8f 3d
       0.015064931 -0.009912849 -0.016470669 0.0701686
000070 ba 65 7c 3c 10 e8 18 be 1b e8 a4 3d a2 87 2a 3e
       0.015405113 -0.14932275 0.08052083 0.16653302
000080 38 ec d7 bd 30 1e d2 3d 64 f7 28 3e da 03 5d 3e
       -0.10543102 0.10259664 0.16500622 0.215835
000090 55 42 43 bd ec 7d da 3d ac 66 83 3d 04 55 17 bd
       -0.04767068 0.10668549 0.064160675 -0.03694631
0000a0 fc 11 ca bd 6f e6 06 3e b4 cb fb bd 24 49 c1 bc
       -0.098667115 0.13173841 -0.12294713 -0.023594446
0000b0 ef 08 11 3e 18 b8 83 3d a5 24 eb bd ad 4c 61 bd
       0.14163564 0.064315975 -0.11481599 -0.055004764
0000c0 19 5d ba bd 85 6e 0c be 27 97 d7 3d d2 ab d5 3d
       -0.09099788 -0.13714035 0.10526877 0.10433163
0000d0 29 f3 5f 3c 3c 3f a4 bd 3c 2c 36 bb 1c 3d a2 3d
       0.013668814 -0.080198735 -0.0027797362 0.07921812
0000e0 5f 53 24 bc 05 f5 b9 3d 5b 8c 08 be 9f 69 19 bc
       -0.010029643 0.09079937 -0.13334791 -0.009363561
0000f0 bd 98 dd bd 85 00 de bd f0 27 1a 3d 2f f9 de 3c
       -0.10820148 -0.10839943 0.037635744 0.02721843
000100 63 d8 9a 3c f8 1c 89 3d 6d ab a8 3b e3 69 08 3e
       0.01890201 0.066949785 0.0051473887 0.13321643
000110 c3 5c 08 3d db 30 ec bd ea a7 0a 3e 82 a2 b1 3d
       0.03329159 -0.11532756 0.13540617 0.08673574
000120 5d 24 9c bd 28 a2 00 be 8c 17 aa bc 69 ce a0 bd
       -0.07624123 -0.12561858 -0.020763181 -0.078518696
000130 7d 0f ef bd 2f a3 01 bd da 7e 49 bc 39 d6 04 bc
       -0.11672876 -0.031649765 -0.01229831 -0.008107715
000140 66 3c b8 bc e8 e1 95 3d c9 18 5d bc d8 db cc bd
       -0.022489738 0.07318479 -0.013494679 -0.10002869
000150 b6 28 49 3d 76 f6 b3 3d ac 49 30 3d 76 be c7 bd
       0.04911109 0.08787243 0.04303901 -0.097531244
000160 dc e7 f6 3c eb a4 a0 3d 44 1b d8 3c 38 56 07 3e
       0.030139856 0.078439556 0.026380189 0.13216484
000170 c9 00 d8 3d 0a e2 43 3d 1c b9 84 3d 3f 66 9f 3b
       0.10547025 0.04782299 0.06480619 0.0048644836
000180 58 0b 1e 3d 09 e4 51 bd a1 14 2f 3e b9 29 1b 3d
       0.038585037 -0.051242862 0.17097713 0.037881587
000190 34 c0 1b 3e b7 04 cd bd 9f e2 28 3d 75 be 02 3e
       0.15210038 -0.10010665 0.041231748 0.12767966
0001a0 2f ec 0c be 73 b6 e3 3d 0b 0f 9f 3d b2 5f c1 3d
       -0.13761972 0.11118784 0.07766541 0.094420806
0001b0 8a 0b f5 3d c9 39 ca 3d 7a 19 54 3c 13 d2 aa bd
       0.119650915 0.09874303 0.012945527 -0.0834085
0001c0 05 98 6d 3d a7 bf 4b bd ba 61 80 bd 8e 70 42 3d
       0.058006305 -0.04974332 -0.0626864 0.04747062
0001d0 02 ca e0 3d 9b c6 bb bd 92 cd 50 bd 2f 0a e4 3d
       0.1097603 -0.0916874 -0.050977297 0.11134755
0001e0 fe 30 de bd b6 55 d6 bc 4d 71 25 bc 1c a5 dd 3d
       -0.10849188 -0.026163917 -0.010097814 0.10822508
0001f0 97 24 9a 3d b9 05 ee bd e4 5a 23 3d c0 7f cc 39
       0.0752651 -0.11622185 0.039881602 0.00039005093
000200 27 72 fd bd 19 d0 85 3d 35 4f 2d 3e 35 98 0e be
       -0.123752885 0.06533832 0.16924746 -0.1392525
000210 25 47 3a bc 9b 04 cb bc 11 4e 87 3b 52 2d 4a 3b
       -0.011369501 -0.02478247 0.0041291793 0.0030849767
000220 d2 2b f7 bd d5 59 09 3d 7c e1 2a bc 12 c5 00 bd
       -0.12068905 0.033532936 -0.010429736 -0.03143794
000230 cf 6d 76 3d e0 92 26 3e 52 dc f8 3d fb 59 a1 3d
       0.060163315 0.16266966 0.12151398 0.078784905
000240 e7 af 76 bc b3 ef c3 3a 97 62 ac 3d 84 c3 4a bd
       -0.015056587 0.0014948755 0.08417242 -0.049502864
000250 a0 05 b2 3d 86 71 84 bd d6 21 7e 3b b0 3b 02 be
       0.08692479 -0.064669654 0.0038777492 -0.12718081
000260 9d 50 e7 3d ff d2 62 bd 3c 41 1c bd ef c4 53 bd
       0.11294673 -0.055377003 -0.03814815 -0.051701482
000270 a1 91 86 3d 20 9d 88 3d 42 ff d0 bc c2 10 33 bd
       0.06570745 0.06670594 -0.025512341 -0.043717153
000280 e8 bb 0e bd f3 8f 72 bd b3 d8 ba bc 90 52 bb bd
       -0.03484717 -0.059219312 -0.022808408 -0.09146607
000290 3f 81 d7 ba 66 57 f4 3a 72 eb 96 bc a5 b8 ba bd
       -0.0016441717 0.001864177 -0.018422816 -0.091172494
0002a0 c2 97 ec bd f0 78 07 bc 6b bc c7 bd 6d 5d c2 3d
       -0.11552383 -0.00826858 -0.09752735 0.09490476
0002b0 10 e3 1a 3e 97 31 e9 bb 22 9b ce 3a b4 f3 8f bd
       0.1512568 -0.0071165073 0.0015762786 -0.070289046
0002c0 fd 90 06 3e 21 90 e8 bd de 23 64 3c 77 9a 55 3d
       0.13141246 -0.113556154 0.013924567 0.052149262
0002d0 e3 26 39 3d a2 49 03 3e 46 1e 4e 3d 16 3a 1e 3d
       0.0452031 0.12821057 0.05032184 0.038629614
0002e0 4e b5 1c 3d 1c da 73 3d 5e 11 6c 3d fe 83 21 3e
       0.038258843 0.059534177 0.05763375 0.15773007
0002f0 a8 60 bb bc dc 4a 54 bd 6f f4 89 bc 8d 77 d8 3d
       -0.022873238 -0.051829204 -0.016840188 0.105696775
000300 b3 7f cc 3d 97 60 18 bd 0e 4b 96 3e 22 3f 45 be
       0.09985294 -0.03720149 0.29354137 -0.19262365
000310 3b ab c5 3d fb e9 16 be cf 39 03 be c6 a3 9b bd
       0.096518 -0.14737694 -0.12815021 -0.07599597
000320 61 76 55 be 21 02 c3 3d fd 14 1a bc c6 ad f6 bd
       -0.20845939 0.095218904 -0.009404418 -0.120448634
000330 29 28 57 bd 63 e1 14 be 27 8c fa 3d 40 f1 ac bd
       -0.052528534 -0.14539103 0.12233763 -0.08444452
000340 2d b2 7b 3d fa d7 6f 3d 28 9a fa 3d 45 ff 9c bd
       0.06144922 0.05855558 0.12236434 -0.07665876
000350 ee 8c 80 bd b2 31 14 bd 2b 91 93 3d ca 44 62 be
       -0.0627688 -0.036180206 0.07205423 -0.22096553
000360 3a 80 8c 3d 9a 60 71 3a 2b ea ad bd 25 d2 23 3d
       0.06860395 0.0009207815 -0.084919296 0.03999533
000370 bf 72 c0 3d f9 07 fb bd 5c c0 3a 3d f2 1e b2 bc
       0.09396886 -0.1225738 0.045593604 -0.021743271
000380 66 93 b0 3d 7b 9b 50 3e 8f 94 00 be b2 3d 21 3e
       0.08621864 0.20371811 -0.1255667 0.15746191
000390 04 ba 84 bc d5 10 df 3d 0a f2 54 bd 55 4d 92 3b
       -0.01620198 0.10891882 -0.05198864 0.004464785
0003a0 ec 77 14 3e 24 b5 29 be 62 24 b1 3c 15 03 1b be
       0.14498872 -0.16573006 0.021623794 -0.15137894
0003b0 0b 28 1e 3e bd d1 55 bc 20 15 c3 3d 48 27 84 bc
       0.15444963 -0.013050494 0.09525514 -0.016132012
0003c0 f3 e9 54 bd 4f b8 d7 bd 74 49 7d 3d a0 a0 c4 bb
       -0.051980924 -0.10533201 0.06183763 -0.0060005933
0003d0 ce 5b 04 3e eb 7c 3f 3d e3 8d 64 bd 27 6a d0 3d
       0.12925646 0.04674999 -0.055799376 0.10176497
0003e0 49 54 3b bd eb 22 d4 bd e1 bf c7 3c 41 e6 d2 3d
       -0.045734677 -0.103582226 0.024383487 0.10297824
0003f0 f2 b0 02 3e a4 7b 90 bd 3c 7c a8 3d 79 9f de 3d
       0.12762812 -0.070548326 0.08226821 0.10870261

gru.bias_ih_l1 f4 [192]
000000 81 43 04 3d 28 ca c9 3d 24 74 0b 3e fc b5 34 bc
       0.03229094 0.09853011 0.13618523 -0.011029717
000010 c7 54 08 3e 3d 35 58 3d a5 1f 14 bc 6d 86 14 be
       0.1331359 0.052785147 -0.009040748 -0.14504404
000020 c4 55 0a 3e 83 d6 bc bd da d7 a3 3d e7 21 22 3e
       0.1350928 -0.09220602 0.08000155 0.15833245
000030 b7 af 03 3c 63 45 0a 3e 11 4d 7e 3d 39 5d 29 bd
       0.008037499 0.13503031 0.062085215 -0.04134867
000040 74 cc 3a bd 22 bc 48 3d ac 04 66 bc ba 8d a8 3a
       -0.045605138 0.049007542 -0.0140392 0.0012859621
000050 4e ef 32 bc 85 a4 6a 3c 8c 76 d0 3d c5 25 15 3d
       -0.0109213125 0.014321451 0.10178861 0.036412973
000060 c2 36 91 3d 61 8c 18 bc f8 db fa 3d bc 48 c3 3c
       0.07090522 -0.009310813 0.12248987 0.023838393
000070 bc a1 6c bd 20 56 b2 3b 14 0c ea 3c dd 0b 41 bd
       -0.05777143 0.005442396 0.028570212 -0.047130454
000080 a1 2c cd 3d 51 26 66 bb 93 eb d2 3c 99 09 a2 3d
       0.10018278 -0.0035118053 0.025747096 0.07911987
000090 34 7a a2 bd c4 43 3c 3d f5 30 78 3c 9d 22 c3 bd
       -0.07933465 0.045963064 0.015148391 -0.09528086
0000a0 7e 62 d4 3d 29 5c b4 bd 16 d2 84 bd 2a e9 0e 3e
       0.103703484 -0.08806641 -0.06485383 0.13956133
0000b0 41 1f 26 3e fb 5f b5 bd e4 0d 04 be ca 0b b4 3c
       0.1622286 -0.088561974 -0.12895924 0.021978278
0000c0 79 27 9d 3d 6a 97 04 3d 66 76 53 bd b1 a8 fa 3c
       0.076735444 0.032370962 -0.051626585 0.030598016
0000d0 59 67 d9 bd 31 71 9d bc 18 49 51 bd 86 0c f7 3d
       -0.10615415 -0.019219013 -0.0510951 0.120629355
0000e0 3a ee 90 bc c5 94 0b 3e 94 f3 97 3d 9b f2 ba bd
       -0.01769172 0.1363097 0.07419506 -0.091283046
0000f0 b5 fa 84 3d cb da 5b 3c 74 db e1 3d b1 50 9e 3d
       0.06493131 0.0134188635 0.110281855 0.077302344
000100 3a 08 bd bc fe 45 28 bd 69 cc d7 bd b4 d6 af bd
       -0.023075212 -0.041082375 -0.10537035 -0.08585873
000110 7a 9f 6e bd 13 26 88 3c a7 32 de bd 2d 8d 0e bd
       -0.058257557 0.016619718 -0.10849505 -0.034802604
000120 73 4c e6 bd 5e e9 f5 bb 6b f5 1c 3d 08 f6 8a bc
       -0.1124505 -0.007504626 0.038319986 -0.01696302
000130 e1 19 9b bd 0c 33 fc ba 21 21 82 3d 93 d9 87 3d
       -0.075732954 -0.0019241287 0.06353975 0.06633296
000140 49 d1 bf bd 5d c8 2f be 60 a0 fa bc 7e 8a 7b bd
       -0.0936609 -0.17166276 -0.03059405 -0.061411373
000150 19 e6 38 be 3a 80 b1 be 7b bc 8b 3c b9 31 3f be
       -0.18056525 -0.34668142 0.017057648 -0.18671311
000160 b5 5c 92 3c de 2d 06 be 0f 03 ab 3d 51 8f 1c 3d
       0.017866472 -0.13103434 0.08350193 0.038222615
000170 81 f5 63 3c 27 b5 12 3e 0d 8e b3 bc fa 97 9c bd
       0.013913513 0.14326917 -0.021918321 -0.07646175
000180 a7 0f db 3d eb 98 a0 bd 0d db b9 bd ad 24 86 bd
       0.10696345 -0.07841667 -0.09074984 -0.06549964
000190 1d a2 99 3c 0a bf 66 bd 7d 26 cb 3c 90 cf dd bd
       0.01875406 -0.056334533 0.024798626 -0.10830605
0001a0 0f 66 1a 3d 38 ce 22 3d 94 fa 86 3d 28 c1 c8 bd
       0.037694987 0.039747447 0.06590763 -0.09802467
0001b0 2d 47 c3 3a 4b b0 ec 3c 05 f0 25 3e fb b5 a9 bd
       0.0014898531 0.028892657 0.16204841 -0.08286663
0001c0 1f 81 06 be 5f 28 fc bd c8 eb 00 3e fa e2 33 bd
       -0.13135193 -0.12312388 0.12589943 -0.043917634
0001d0 81 a6 27 bd 53 89 c0 3c 5d 0f ed bd a1 39 20 3e
       -0.040930275 0.023502981 -0.11575196 0.15646984
0001e0 b6 0e 07 3e 47 7b d0 bd 17 2b 38 3e 5c dd ac bd
       0.13189206 -0.10179763 0.17985187 -0.084406585
0001f0 90 ee 3a be 8a fd 41 3e 00 96 e1 3c cc 48 e6 bd
       -0.18255067 0.18944374 0.027537346 -0.11244354
000200 03 72 d3 3d 11 ba 1e bc 86 9d 01 3d b6 1d 14 bd
       0.103244804 -0.009687916 0.031644367 -0.036161147
000210 ec 32 9b 3d 64 d9 8e 3d 1c e7 c5 bc e1 0f 86 bd
       0.07578072 0.06975058 -0.024158053 -0.065459974
000220 ce aa 16 3d d9 a2 a8 3d 73 f2 1b 3d 2f 7e c7 bd
       0.036783986 0.08234186 0.038073014 -0.097408645
000230 a8 25 e8 3d 9c 9c 00 bc a9 dc b6 bd 8a 0c 24 bd
       0.11335307 -0.007849839 -0.08928806 -0.04005102
000240 db b6 38 bd 80 2d b9 3d d0 86 86 3d 47 26 5a 3d
       -0.04509626 0.090418816 0.06568682 0.05325916
000250 55 ac 03 bd 3c 1c c5 bd 63 e2 54 3d 1d f2 70 bd
       -0.03214677 -0.09624526 0.05197371 -0.058824647
000260 87 c3 bd bc 1c 8b 92 bd 91 69 2c 3d ad c2 de bb
       -0.023164524 -0.07155439 0.042092863 -0.0067981095
000270 c3 d2 59 3c 00 8c 29 bc bd 34 63 3d b6 b1 c4 3d
       0.013294878 -0.01034832 0.055470217 0.09604208
000280 a8 6e 9e bd 50 a7 b0 bd 80 ff ce 3d 74 bf ac 3d
       -0.0773595 -0.08625662 0.101073265 0.08434954
000290 f6 e1 c1 bd c7 80 23 3d 9a f5 f1 3c c1 37 0e 3d
       -0.09466927 0.039917734 0.029536057 0.03472114
0002a0 53 de 9d 3d 4a d2 8f bd 5b 40 fc bd f2 d2 1c bd
       0.077084206 -0.07022531 -0.12316962 -0.03828711
0002b0 64 b7 a4 3c 80 ea b9 3d 13 c7 4a 3d 0e 9b 93 bd
       0.020106979 0.090779305 0.04950626 -0.07207309
0002c0 2c b7 a8 3c 42 9b 25 bd 6b 9b be 3d f5 e9 11 3d
       0.020595156 -0.04043127 0.093069874 0.03562351
0002d0 0b 10 eb 3c bf 92 be bd b0 72 7d 3d 84 33 a4 3d
       0.028694173 -0.09305333 0.061876953 0.08017638
0002e0 7d 48 e0 3d d8 2a fe 3c 73 b3 ab 3d c3 d9 b4 bd
       0.10951326 0.031026289 0.083838366 -0.08830597
0002f0 b0 b9 5c 3d bc ad 80 bd 67 ea 85 3d 00 24 c3 3d
       0.053888023 -0.06283137 0.06538849 0.09528351

gru.bias_hh_l1 f4 [192]
000000 1a b4 9a 3d c5 03 a8 3d 86 1f f9 3d 88 7d c3 bc
       0.07553883 0.08203844 0.12164216 -0.023863569
000010 19 64 bb bd ba b3 8a 3d 6e 20 2c be df f2 de 3c
       -0.091499515 0.06772561 -0.16809246 0.02721542
000020 93 7b 3e 3d 6a 6a 50 bd e4 05 a6 bd 6e f3 36 3d
       0.04650457 -0.050882734 -0.08106592 0.044665746
000030 80 46 bd 3d 3d c3 d5 bc 84 b4 d1 bd 39 9a 53 bc
       0.092419624 -0.026094073 -0.10239509 -0.0129151875
000040 34 a1 5e bd 55 0d d6 3d 57 cb 9d bd 62 e5 fa bc
       -0.054352954 0.10451762 -0.077047996 -0.030626956
000050 c5 27 1b bd 71 18 85 3d 9f 43 be bd 19 b6 95 3c
       -0.037879724 0.064988025 -0.092902415 0.018275307
000060 c2 eb 15 3e fd 2c 66 bd 70 3c bd bd 41 2a c8 3c
       0.14640716 -0.056195248 -0.09240043 0.02443421
000070 6e 92 42 3d 34 cc c6 3c bc 1e 32 bd f4 b1 e0 3d
       0.047502927 0.024267294 -0.04348634 0.10971442
000080 16 6c 7a 3d 3b b4 0b bd 3e 70 6f 3d 08 0c 45 3d
       0.061138235 -0.034107428 0.058456652 0.048107177
000090 65 c8 bb 3c d7 8b a3 3b ab 67 d8 bc e9 5f 3a 3b
       0.022922704 0.0049910354 -0.02641662 0.0028438515
0000a0 d1 8f 19 bd e4 20 0c 3c d4 e7 e9 bc 37 8e 45 3d
       -0.03749067 0.008552764 -0.028552927 0.04823133
0000b0 62 09 89 bd 7e 65 a1 bd 59 12 9d bd 5f 7d 75 bd
       -0.06691243 -0.07880686 -0.07669515 -0.059934016
0000c0 dc 2a 87 bd f2 59 ec bd 87 0c 31 be 7e 74 84 3c
       -0.06599972 -0.11540593 -0.17289935 0.016168829
0000d0 cd 81 5b 3d 5b 07 b5 3c aa aa 45 3d 54 8d f9 3d
       0.053590585 0.022098234 0.04825846 0.12185159
0000e0 a1 b9 05 bc 56 97 06 3e 12 91 c1 bd 09 00 95 3d
       -0.008161933 0.13143668 -0.09451498 0.07275397
0000f0 49 e4 22 3e 18 2f 39 3d 26 36 3f 3d 57 31 83 bd
       0.15907396 0.045210928 0.0466825 -0.06405895
000100 f5 f6 f2 ba 5d 49 8e bb 4e 34 39 be d4 d1 2c be
       -0.0018536734 -0.0043422417 -0.18086359 -0.16876918
000110 c0 69 37 3b 87 e3 23 bd 17 80 8c 3d 6a 5a 28 be
       0.0027986616 -0.04001191 0.06860369 -0.1644074
000120 ef f1 eb bd 2f 60 86 3c 5f 3e 8c bd 03 93 00 be
       -0.115207545 0.016403286 -0.06847834 -0.1255608
000130 c7 f6 85 be a2 db 8c 3d 03 9e 8f 3c 11 a0 83 3d
       -0.2616484 0.06877829 0.0175314 0.064270146
000140 1d 0b 98 bd c5 32 92 bc 44 1b 26 be 0e 6d d3 ba
       -0.07423995 -0.017846474 -0.16221339 -0.0016130523
000150 0d e0 87 bd 64 2d 92 be ba 8a ff bc 08 8e 80 bd
       -0.06634531 -0.28550255 -0.03119408 -0.0627709
000160 44 e0 5e 3d eb 83 2e be ea 6a 61 3e 1b 4d da 3c
       0.054413095 -0.1704251 0.2201344 0.026648095
000170 3b 09 1f be 6d 15 f2 3d ac c9 e1 3c 1b 4f 8b 3d
       -0.15530865 0.11820493 0.027561985 0.068021975
000180 83 d0 9c 3d 6e cc b7 bd 67 a2 59 3d 02 35 0e 3e
       0.07656958 -0.08974539 0.053133395 0.13887408
000190 61 da 6b 3d 9b c3 10 3d e2 67 88 3b 27 01 bc bd
       0.05758131 0.035342794 0.0041627744 -0.09179907
0001a0 86 a5 09 3e 33 58 54 bc 4b 2a 58 3d d0 65 80 3d
       0.13442048 -0.012960481 0.05277471 0.06269419
0001b0 51 4d 9e bd 03 38 3b bd e7 fb 33 3a 6d 88 80 3d
       -0.07729591 -0.045707714 0.00068658445 0.06276021
0001c0 a3 7a 44 bd cf d8 db bd 54 67 a8 3d e0 10 cc bb
       -0.047968518 -0.10734712 0.08222833 -0.0062275976
0001d0 d5 db 1d 3e b5 7c eb 3d 82 be 5e bc de d8 25 3e
       0.1541589 0.11498395 -0.013595225 0.1619601
0001e0 30 38 5d 3d aa 7e 66 bc e1 13 4b 3d ad 8b 31 bd
       0.054008663 -0.014068285 0.049579505 -0.043346096
0001f0 36 52 86 be 75 b9 2a 3e 23 2a e5 3b 09 81 0b be
       -0.26234597 0.16672309 0.0069935485 -0.13623442
000200 a2 0f a0 bd c0 e5 7d bd 6b 0f b7 bc ea da a3 3d
       -0.07815482 -0.061986685 -0.022346219 0.08000739
000210 5c 2b ab 3d 95 57 e8 3d d7 59 9d bd c1 49 d4 bd
       0.083578795 0.1134483 -0.07683151 -0.1036563
000220 65 a7 c4 3d cd 78 a3 bd 0d 4e bc bd fd dc b4 3d
       0.096022405 -0.07982025 -0.091945745 0.08831213
000230 1a 06 9d bd 1f 56 e0 bd c8 e8 15 3d fa e7 9f bd
       -0.076671794 -0.10953926 0.03659895 -0.07807918
000240 d7 f5 d9 3d d6 bf 8f 3d 6b 68 e8 bc 8e 07 c4 bd
       0.10642593 0.07019012 -0.028370103 -0.095717534
000250 50 02 af 3b 06 fd a8 3d 9d ef de bd 0e 9c 15 3e
       0.005340852 0.082513854 -0.10885546 0.14610311
000260 d6 a7 a6 bd ec e1 aa 3d a1 4a 09 be aa 27 a5 3d
       -0.08137481 0.083438724 -0.13407375 0.08064206
000270 e3 c2 f4 3c ac f8 a9 bd c7 bd f3 bc 6e 91 b5 bd
       0.029878085 -0.082993835 -0.029753579 -0.08865629
000280 59 9e 5d bd b3 46 72 bb c8 a0 0c 3d 1b 21 e4 bc
       -0.05410609 -0.003696841 0.03433302 -0.027847817
000290 4d e9 54 3d 34 79 52 bd f8 aa ed bb 2a b9 0c be
       0.051980305 -0.05138512 -0.007253047 -0.1374251
0002a0 d0 08 2b bd 0d 42 d0 3d fb 38 d5 3d fa 88 8d bd
       -0.04175645 0.10168848 0.10411259 -0.06910892
0002b0 58 53 fe 3c 3e 9e 09 be 13 82 a2 bd 03 c3 8d 3d
       0.0310456 -0.13439271 -0.07934966 0.06921961
0002c0 c0 dd ab bd 51 61 2d bd 03 92 6b bc 2c 0d 65 3d
       -0.08391905 -0.042329136 -0.014378074 0.055920765
0002d0 b8 9e 8e 3d 64 f7 4f 3d 7d 17 9f 3c d4 99 65 3d
       0.06963867 0.05077304 0.01942038 0.056054905
0002e0 6d a1 9a bc d6 cb 57 3d 27 5c e9 3c d2 9b 99 bd
       -0.018875802 0.052684627 0.028486324 -0.075004235
0002f0 46 d0 9c bd 50 ec 94 bd 6a 7f 9b bd 6d 77 40 bd
       -0.076569125 -0.072716355 -0.07592662 -0.046988893
